…
2025-04-28 14:10:37.275023: I tensorflow/core/kernels/data/shuffle_dataset_op.cc:422] Filling up shuffle buffer (this may take a while): 426 of 10000
2025-04-28 14:10:47.303099: I tensorflow/core/kernels/data/shuffle_dataset_op.cc:422] Filling up shuffle buffer (this may take a while): 589 of 10000
2025-04-28 14:10:50.546247: I tensorflow/core/kernels/data/shuffle_dataset_op.cc:450] Shuffle buffer filled.
Model: "sequential"
_________________________________________________________________
 Layer (type)                Output Shape              Param #
=================================================================
 resizing (Resizing)         (None, 32, 32, 1)         0

 normalization (Normalizati  (None, 32, 32, 1)         3
 on)

 conv2d (Conv2D)             (None, 30, 30, 32)        320

 conv2d_1 (Conv2D)           (None, 28, 28, 64)        18496

 max_pooling2d (MaxPooling2  (None, 14, 14, 64)        0
 D)

 dropout (Dropout)           (None, 14, 14, 64)        0

 flatten (Flatten)           (None, 12544)             0

 dense (Dense)               (None, 128)               1605760

 dropout_1 (Dropout)         (None, 128)               0

 dense_1 (Dense)             (None, 102)               13158

=================================================================
Total params: 1637737 (6.25 MB)
Trainable params: 1637734 (6.25 MB)
Non-trainable params: 3 (16.00 Byte)
_________________________________________________________________
Epoch 1/10
648/648 [==============================] - 58s 89ms/step - loss: 2.9250 - accuracy: 0.2792 - val_loss: 2.0820 - val_accuracy: 0.4627
Epoch 2/10
…
Legătura cu codul TensorFlow Simple Audio Recognition:
- Codul din tutorialul TensorFlow este conceput pentru recunoașterea audio simplă, adaptat aici pentru a clasifica notele muzicale.
- Folosește spectrograme pentru a transforma semnalele audio în date vizuale, procesate de rețeaua CNN.

F1 Score: 0.5927912484412722



VARIANTA 2 : CU 20 EPOCH SI MAI MULTE FILTRE
Model: "sequential"
_________________________________________________________________
 Layer (type)                Output Shape              Param #
=================================================================
 resizing (Resizing)         (None, 32, 32, 1)         0

 normalization (Normalizati  (None, 32, 32, 1)         3
 on)

 conv2d (Conv2D)             (None, 30, 30, 64)        640

 conv2d_1 (Conv2D)           (None, 28, 28, 128)       73856

 conv2d_2 (Conv2D)           (None, 26, 26, 128)       147584

 max_pooling2d (MaxPooling2  (None, 13, 13, 128)       0
 D)

 dropout (Dropout)           (None, 13, 13, 128)       0

 flatten (Flatten)           (None, 21632)             0

 dense (Dense)               (None, 256)               5538048

 dropout_1 (Dropout)         (None, 256)               0

 dense_1 (Dense)             (None, 102)               26214

=================================================================
Total params: 5786345 (22.07 MB)
Trainable params: 5786342 (22.07 MB)
Non-trainable params: 3 (16.00 Byte)
_________________________________________________________________
Epoch 1/20
648/648 [==============================] - 162s 249ms/step - loss: 2.5915 - accuracy: 0.3612 - val_loss: 1.8106 - val_accuracy: 0.5201
Epoch 2/20
…
